generator.pth (torch, 998298 bytes, 7 tensors)

label_emb.weight f4 [10, 10]
000000 0a e2 94 3e a4 c5 5d 3f ac b2 14 be af 52 c0 3e
       0.29078704 0.866297 -0.14521283 0.37563083
000010 3f e6 e5 3f fd 27 4e be 92 de 21 c0 cf 09 2f 3f
       1.796089 -0.20132442 -2.5292096 0.6837434
000020 14 63 12 3e 82 28 91 bf 51 4e cc 3f d2 4a 98 bf
       0.14295608 -1.1340487 1.59614 -1.1897833
000030 a1 7e ab 3f 35 27 3c 3f 13 eb d5 be d5 5f a1 be
       1.3398019 0.73497325 -0.4178091 -0.31518427
000040 71 c7 ab bf b7 8a 31 bf ed 05 9c 3f 02 40 5f bf
       -1.342024 -0.6935229 1.2189308 -0.87207043
000050 ce d1 e5 be 0b 4d 80 bf e4 be ca bf 6a 1a 46 bf
       -0.4488663 -1.0023512 -1.5839505 -0.77384055
000060 15 b3 a7 3f 44 92 30 3f 2f 64 9a 3d 44 94 8d 3d
       1.3101526 0.68973184 0.0753864 0.06913045
000070 44 ec 97 bf 31 09 4b 3e 26 2a 45 bf 15 59 9d 3f
       -1.1868978 0.19827725 -0.7701744 1.2292811
000080 79 bc af bf 23 98 62 3f 57 81 39 bf 68 a6 92 bc
       -1.3729392 0.8851339 -0.7246298 -0.017901614
000090 51 a7 4f 3f a4 87 17 3f 6b d1 74 bf e6 dd 34 3f
       0.8111468 0.59191346 -0.95632046 0.7065109
0000a0 eb 18 47 3d 47 ca 0c bf 54 30 2f bf f0 a1 8f 3e
       0.048607748 -0.5499615 -0.6843312 0.28053236
0000b0 b1 9d 12 bf 24 dc e3 3f bf 39 55 bf 90 c6 bf bf
       -0.5727187 1.7801557 -0.8329124 -1.4982471
0000c0 69 25 a4 3e 9d 36 68 3f ba 52 1e 3f 93 81 83 bf
       0.32059792 0.90708333 0.6184498 -1.0273918
0000d0 7c b0 7b be 6d a0 18 3f 5a 61 02 bd 71 15 c5 be
       -0.24579042 0.5961979 -0.031831123 -0.3849292
0000e0 6f a2 09 3f 7b b9 f0 bd 07 91 8d bf 74 17 40 bf
       0.5376348 -0.117541276 -1.1059884 -0.75035787
0000f0 50 14 0d 3f c3 1e 83 bf 79 52 01 bf 81 81 b3 bf
       0.5510912 -1.0243763 -0.5051647 -1.4023896
000100 d2 fb 56 bf 50 66 b4 bf e9 7b 9d be 63 9b 83 bf
       -0.83978 -1.4093723 -0.30758598 -1.0281795
000110 27 51 47 bf 16 ec 6d 3f ae f3 66 bf 57 bf 56 bf
       -0.77858204 0.92938364 -0.90215576 -0.8388571
000120 36 28 18 3f f3 0e ff 3c 5f 93 19 bf 61 4b d8 3e
       0.5943636 0.031135058 -0.59990495 0.4224501
000130 95 6c 6f bf fe 75 a8 bf d5 85 c2 3e e6 b5 a6 bf
       -0.9352506 -1.3161008 0.3799273 -1.3024261
000140 a2 81 fb bf 56 e7 79 3f fa 61 28 bf d9 54 eb bf
       -1.9648936 0.97618616 -0.657745 -1.8385268
000150 28 e8 41 bf 93 53 95 3d a9 a5 37 3f fe 30 bd bc
       -0.7574487 0.07291331 0.7173715 -0.02309465
000160 be 33 ae bd f0 5a d4 bc 31 75 3f 3f 81 cd 1f bf
       -0.08505963 -0.025922269 0.74788195 -0.6242295
000170 f0 ea 73 bf 49 d5 2f be fd 20 b9 be d5 5b e8 3d
       -0.9528036 -0.17171206 -0.3615798 0.113456406
000180 d8 03 07 bf 9e 60 15 3f 1f 6c 89 3f 07 9b 8f bf
       -0.5274024 0.5835055 1.0736121 -1.1219186

model.0.weight f4 [128, 110]
000000 67 9c 4f 3c 11 ed 07 3d ae ac 82 bd 4c 5b 41 3d
       0.012671567 0.03318507 -0.06380592 0.047206208
000010 4d a1 90 3d 85 11 ae 3c d6 4a 99 bd 8b 5c 88 3d
       0.07062016 0.021248588 -0.07484977 0.06658276
000020 97 ee d0 3a 45 8b c5 bb bf 6c 94 bd 4d 91 47 bd
       0.0015940246 -0.006028565 -0.07247304 -0.048722554
000030 d7 26 06 3d 2c e5 ae 3d 5b 75 ef bb 90 bf 81 3d
       0.032751884 0.08539805 -0.007307691 0.06335366
000040 cf 2f 13 bd 14 26 df 3c 8e 41 91 bd 9e 98 b0 bc
       -0.035934266 0.027239837 -0.07092582 -0.021557149
000050 dd b1 60 bd 0d 5d 38 3d ab 67 9c ba cd 5d 99 39
       -0.054857124 0.045010615 -0.0011932751 0.0002925232
000060 5b b5 3b 3d 1d 7e cf ba b9 7b e7 3c af dc 7e bd
       0.04582725 -0.0015830431 0.028257238 -0.06222218
000070 48 63 97 3d ca c5 2e 3d 08 36 89 bd ca 7c 47 bd
       0.07391983 0.042669095 -0.06699759 -0.048702992
000080 48 44 d8 3c fe 4e 56 bd e1 dc 84 3d 56 9b 99 3d
       0.026399747 -0.052321427 0.06487442 0.07500331
000090 01 21 28 3d 8e 7e e6 3c f0 e0 ae bc 1a ca 90 3c
       0.0410471 0.028136518 -0.021347493 0.017674495
0000a0 e8 88 44 bd c1 2a 34 bd af 6e 04 bd cf 45 3b bd
       -0.047982126 -0.043986086 -0.03233212 -0.04572087
0000b0 e4 ec 30 bd 89 5c 96 bd 42 91 9a bc 63 20 66 bd
       -0.043194667 -0.073418684 -0.018868092 -0.05618323
0000c0 e9 08 65 3d ea 07 1a bd a5 e2 28 bc 27 fc cf 3c
       0.0559167 -0.037605204 -0.0103079425 0.02538879
0000d0 3f bb d5 3b 48 a7 7a bd c1 7b 8b 3d 9f 3d 2a bd
       0.0065225656 -0.061194688 0.068107136 -0.041562673
0000e0 8a 7f 3a 3d 44 23 6c bd 2a 9f b7 3c 9f ad 2d bb
       0.045531787 -0.05765082 0.022414763 -0.0026501191
0000f0 4e 8d b4 3c fe 88 f1 3c d9 2e 81 3d 3d 71 aa bc
       0.022040036 0.029484268 0.063077636 -0.02080595
000100 71 b1 22 bd 16 a5 3c 3d ea e0 bb bc 0b ec 22 3d
       -0.039720003 0.046055876 -0.022934396 0.03977589
000110 37 0e 5e 3d a7 d6 36 bc bc d7 48 bd c6 d6 77 ba
       0.054212775 -0.011159576 -0.049033865 -0.0009454306
000120 c8 05 ea bc de 34 f3 3c 53 fc e1 3c 9b 1d 83 bd
       -0.02856721 0.029688295 0.027586138 -0.06402131
000130 85 c7 8a bb c7 e3 39 3d 1c 2b a1 bc 96 8f 41 3c
       -0.0042352104 0.04538324 -0.019673876 0.011814019
000140 0c 6e 22 bd cb 07 cd bc 82 25 25 bd 61 83 13 3c
       -0.03965573 -0.02502813 -0.040318973 0.009003491
000150 44 60 30 3d a8 9a 0e 3c c0 ca 3a bd 2e 2c 7e 3d
       0.043060556 0.008703865 -0.045603514 0.06205385
000160 56 88 8b 3c 01 cf ba bb 30 3a 2b 3c d6 96 42 bb
       0.017032783 -0.0057009463 0.010450885 -0.0029691956
000170 d5 2b cf 3c 95 f8 9f 3d 68 5d 7f 3d 22 b0 c8 3b
       0.025289455 0.07811085 0.06234494 0.0061245123
000180 d2 fc 5a 3d 3c 20 33 3d 9a c7 e1 3c 04 3c 6c bc
       0.053463764 0.043731913 0.027560998 -0.014418606
000190 2c 46 e6 bd f6 f5 29 3d f5 1d 68 bd f7 b9 00 bd
       -0.11243853 0.041494332 -0.056669194 -0.03142735
0001a0 b2 1d 8b 3d 0c f0 9d 3d a1 a0 d6 bd f8 a8 e7 3d
       0.06792773 0.07711801 -0.10479856 0.11311525
0001b0 69 e3 07 3e 61 79 61 be 57 50 7d 3d 3d 1a 1a bd
       0.13270344 -0.22018959 0.061844196 -0.03762268
0001c0 c4 f5 78 bd e3 90 1b 3d c5 98 82 bc a6 ab 02 bd
       -0.060781255 0.03797997 -0.015941987 -0.031901978
0001d0 73 a7 5d bc a0 1f 05 bd ae 6a aa 3c 37 34 ec bc
       -0.013528693 -0.032500863 0.020802822 -0.028833492
0001e0 b8 c7 86 3d 27 c9 80 bd c2 a9 64 bd f2 8c fe 3c
       0.06581062 -0.06288367 -0.055825956 0.031073067
0001f0 10 db 09 3c 3b b0 75 3d 72 a4 55 3d e9 a5 0f 3d
       0.008414045 0.05998252 0.05215878 0.035070334
000200 61 e7 16 3b 87 ef 44 3d 2d 0b 94 3a 11 47 8e 3c
       0.0023026096 0.048079994 0.0011294835 0.017367871
000210 49 3c 76 3d 92 73 3b bd 40 bc 1a 3c 31 4a 77 3c
       0.060116086 -0.045764513 0.009444296 0.015093372
000220 63 78 7d bd 4f 31 85 3d 74 bc 8c bd 57 6f 60 bd
       -0.061882388 0.065035455 -0.06871882 -0.054793682
000230 75 92 68 3c d5 e1 33 bd 25 db e7 bc 4e 75 17 3d
       0.014195074 -0.043916542 -0.028302738 0.036977105
000240 b7 33 04 3d 5b a8 17 3d 02 59 4e 3d fa ce c5 bc
       0.03227588 0.03702579 0.050377853 -0.024146546
000250 cb ee 35 3d 84 4b 86 3d 39 22 ef bc 45 f2 8c bc
       0.044417184 0.06557372 -0.029191123 -0.017205367
000260 0d 61 fd 3b 7b ad 1e 3c 85 b6 87 3c ec b0 34 ba
       0.0077325166 0.009684916 0.016566524 -0.00068928185
000270 d6 84 1a 3d 32 1c 8f 3d 16 7d 1e 3d 3b 8b 45 bc
       0.03772434 0.069878 0.03869351 -0.012057121
000280 29 17 40 3d 22 77 1c 3d 86 56 b9 bc 0a 80 15 3d
       0.046897087 0.03819955 -0.022624265 0.03649906
000290 9a c9 f4 3c d6 e1 0e 3d a5 6b 54 3d bb 5b 1a 3d
       0.029881287 0.034883343 0.05186047 0.037685137
0002a0 ee a4 3e bd 9e 0b 39 bd 3c de 03 bd 06 9c 8a 3d
       -0.046544008 -0.045177095 -0.03219436 0.0676804
0002b0 65 ba 57 bc c9 6c b7 3c 86 03 7b 3d 66 76 0c bc
       -0.0131669985 0.02239074 0.061282657 -0.00857315
0002c0 95 8b ad 3c 74 13 4d 3d e3 69 8a 3d 1e ea 67 3c
       0.021184722 0.05006738 0.067584775 0.014154939
0002d0 ba a3 9f 3c 82 26 66 bd 7d 3a 2a 3d de 84 b1 bd
       0.01948725 -0.056189068 0.041559685 -0.086679205
0002e0 f9 8f 83 3d 59 56 99 3d dc cc 4e ba 66 44 ca bc
       0.06423945 0.07487173 -0.0007888803 -0.024690818
0002f0 a1 e4 31 3c e4 4c a2 3c 99 f8 a0 bd 1c 6a 7d bd
       0.010857732 0.019812055 -0.07859916 -0.061868772
000300 97 99 e7 bc a7 4a 58 3c 2c 48 23 bd 76 13 21 3d
       -0.02827148 0.013201392 -0.03986375 0.0393252
000310 cd fa 13 3d 5e c5 9e bd 83 e3 fb bc b1 36 be 3c
       0.036127854 -0.077524886 -0.030748134 0.023219438
000320 68 23 92 bd 95 b5 91 3d a4 ed 40 3c 54 91 9b bd
       -0.071356595 0.07114712 0.011775408 -0.075960785
000330 48 31 c6 bc 37 8e 09 3d c3 c1 4d 3d 3f e2 23 3d
       -0.024193421 0.033582892 0.050233614 0.040010687
000340 ea 8b 4d bd 7b df 90 bd 6a 4f 3a 3d f2 0d 3b 3c
       -0.05018226 -0.070738755 0.04548589 0.011416899
000350 a5 60 24 be d1 5b 9e bd 3c ac 24 be 6a cf 53 3e
       -0.16052492 -0.07732356 -0.16081327 0.20684591
000360 45 7d 58 bc 84 5e 21 3e 8a 61 39 3e e9 df 4e be
       -0.01321346 0.15758711 0.18103614 -0.20202602
000370 9a 44 5f 3d 5e 04 92 bd 1c b1 f3 3c 6d cc a2 bc
       0.054508783 -0.07129739 0.029747538 -0.019872868
000380 0b 2d 29 bd 1e 2b 21 bc d5 76 81 3c 71 b4 90 bc
       -0.041302722 -0.00983694 0.015803734 -0.017664166
000390 bd 91 e8 3c 26 7f 07 bb 8b eb 86 3c 40 99 8b bb
       0.028389806 -0.0020675152 0.016469738 -0.004260212
0003a0 3d b6 0d 3c 9d 78 49 bc c1 8e 0a 3d ff e9 05 3d
       0.008649406 -0.012296823 0.033827547 0.03269386
0003b0 88 a7 7f 3d d5 04 05 3d b1 df b1 bc 78 7e 5c bc
       0.06241563 0.03247531 -0.02171311 -0.013457887
0003c0 41 fc 88 bc 84 b0 69 bc c4 0d 15 bd 1a ca 3b bc
       -0.016721847 -0.014263276 -0.03639008 -0.011461759
0003d0 3e a9 35 3d 1c df ec 3c f8 77 52 bd 98 ec 36 bc
       0.044350855 0.02891498 -0.051383942 -0.011164807
0003e0 b6 ab b4 3a 2e 2d 96 bc 2c c3 08 bd 16 10 c1 3c
       0.0013784084 -0.01833209 -0.033389255 0.02356724
0003f0 39 9a 78 bd ac 8c 56 bd 43 e5 26 3d 73 b9 38 3d
       -0.060693953 -0.05238025 0.040745985 0.045098733

model.0.bias f4 [128]
000000 32 1d 03 3d 7a 3f 67 3c 8e 50 95 3d 49 22 00 3d
       0.032010265 0.014114255 0.07290755 0.031282697
000010 7b 9f 74 3d 55 bb 02 3c cb c1 3f bd aa 03 97 bc
       0.059722405 0.007979234 -0.046815675 -0.018434364
000020 47 32 c4 3d 9e 02 ea 3c 5b 08 01 3e 95 ce 19 3e
       0.09579902 0.028565701 0.12600844 0.15020211
000030 f3 e0 39 3d 80 36 62 3d f0 e7 41 3c e4 b4 e8 bc
       0.045380544 0.055227757 0.011835083 -0.028406568
000040 0d e8 3c 3d a2 87 8c 3d a7 85 72 bd 5f 10 f5 3c
       0.04611974 0.068618074 -0.059209492 0.029915033
000050 79 25 b3 3d fc 25 c4 bd 90 8d 35 bd e5 77 a4 3d
       0.08747382 -0.095775574 -0.044324458 0.080306806
000060 f8 2d 87 bc e3 4a b0 3d 72 49 4b bd f7 73 5a 3d
       -0.016501412 0.086080335 -0.04963059 0.05333325
000070 e1 5e 5e 3c 6b 3a 0f bc b6 22 40 bc ba d6 ac bb
       0.013572426 -0.008741955 -0.011727026 -0.005274621
000080 a1 14 03 bd 53 0f c7 3d b8 5e 88 3d fd 72 7b bc
       -0.032002095 0.0971972 0.06658691 -0.01534724
000090 67 7d bf 3d fd 62 aa 3d 9e 3d dd 3d 6e 45 05 3d
       0.093500905 0.08319662 0.10802768 0.032536916
0000a0 63 fb 8f 3b 71 f9 47 3d 34 3f bf 3d 46 69 8a 3c
       0.0043939813 0.04882187 0.09338227 0.016895901
0000b0 e9 71 0a 3e b0 88 bc 3d 6c 2b 41 bd b2 05 e9 3d
       0.13520016 0.092057586 -0.04716055 0.113780394
0000c0 97 88 06 3e e2 60 8d bc 1d d7 62 3d 87 6d 0c 3e
       0.13138042 -0.017258111 0.05538093 0.13713656
0000d0 6d 56 0c 3d 24 d3 75 3d f1 a6 c2 3d 86 bd 7b 3d
       0.03426211 0.060015813 0.09504498 0.06146004
0000e0 c9 0b cb 3d ca ef b4 3d 4e 3e b2 3d 56 7b af bd
       0.09914357 0.08834799 0.0870329 -0.08568446
0000f0 d5 3c e7 3d da f9 c7 bc 08 85 cf 3c 6d 56 af 3d
       0.112909 -0.02441113 0.025331989 0.08561406
000100 4f 4c cc 3d 0b 55 7f bd 56 ab cc 3d d6 cd e8 3c
       0.09975492 -0.062336963 0.09993617 0.028418463
000110 31 7f fe bc 16 90 43 3d d4 72 28 3e c4 3f ae 3d
       -0.031066509 0.047744833 0.16450053 0.08508256
000120 c5 55 a0 3d 95 53 65 3d 00 e5 70 3d dc 21 c8 3d
       0.07828859 0.055987913 0.05881214 0.09772083
000130 78 97 8b bc ec af e3 3b df d5 09 bc 1a 04 41 3d
       -0.01704 0.0069484618 -0.008412807 0.047123052
000140 3a 0d 06 bd d7 77 71 3d b5 67 df 3d 01 c7 f0 3c
       -0.032727458 0.05895218 0.109084524 0.029391767
000150 ab 09 2b 3d 00 66 0f 3e 54 db 02 3e 42 9e c0 bd
       0.041757267 0.14003754 0.1277898 -0.09405185
000160 f0 f9 b5 3d d5 fe a1 3d 4f a2 32 3c 9c 34 38 bd
       0.088855624 0.079099335 0.010902955 -0.044972047
000170 ac e1 78 bb 59 85 53 bd 2e df 2b bd 34 4f eb bc
       -0.0037976308 -0.051640842 -0.041960888 -0.02872429
000180 b0 d6 b6 3d 9d 42 be 3d c1 bb 39 bd a2 f4 fe bb
       0.08927667 0.09290049 -0.04534507 -0.0077806273
000190 7e 3d 08 bd be 58 e3 3d 1f b9 75 3c 95 d1 2c 3d
       -0.03326177 0.111009106 0.01499775 0.04219206
0001a0 86 5a 0b bb d6 13 1f 3d 74 cd 38 bd 32 d9 cb 3d
       -0.0021263673 0.038837276 -0.04511781 0.09953536
0001b0 b1 89 2b bd a1 7e da 3d 60 08 14 3e aa 0b 05 3e
       -0.04187936 0.10668684 0.1445632 0.1299273
0001c0 8b 73 3e 3d 61 d1 e5 3c 67 b1 5d bc ab 24 d8 3d
       0.04649691 0.028053941 -0.013531066 0.10553869
0001d0 f5 36 01 3c b3 99 48 3d 4d 32 b2 bc 13 17 fb 3d
       0.007886638 0.048974704 -0.0217525 0.122602604
0001e0 b0 77 ab bd 9f 41 e8 3c 33 04 0e bd 1d 30 c7 3d
       -0.08372438 0.028351603 -0.034671973 0.09725974
0001f0 83 d7 02 3e 15 9f 77 bd a2 4a 78 3d a8 b5 cc 3d
       0.12777524 -0.060454447 0.06061805 0.09995586

model.2.weight f4 [256, 128]
000000 8a 21 ff 3b 04 53 0d 3c e1 df 96 3c cd 60 f8 3c
       0.0077859806 0.0086257495 0.0184173 0.030319596
000010 98 2c 8a 3d 16 6f 68 3c 8e 98 90 3d 17 84 6d 3d
       0.06746787 0.014186641 0.070603475 0.0579873
000020 20 50 8e 3d 16 8e 33 3d 1f 11 45 3d 0b ae 6a bc
       0.069488764 0.043836676 0.04811203 -0.014323722
000030 98 47 e2 3a 2a 50 8c 3c c8 b5 85 3c 6a 95 d8 bc
       0.0017263768 0.017128069 0.016322032 -0.026438434
000040 30 a4 64 3c 22 39 1c bd 11 7b 93 3d ca e5 bc bb
       0.013955161 -0.038140424 0.072012074 -0.0057646977
000050 7a b0 88 3d f1 39 97 3c 84 40 fa bc 94 52 5c bd
       0.06674285 0.018460246 -0.030548342 -0.05378969
000060 5c 1f b8 bc 10 7a 7b bc 32 c3 e1 bc 55 30 56 bd
       -0.02247589 -0.015348926 -0.027558897 -0.052292187
000070 77 3e fc ba 07 c3 dc 3b 9b a2 81 3d dd 66 cc 3c
       -0.001924469 0.0067371163 0.06329843 0.024951393
000080 a4 0c 37 bd ca a9 07 b9 b7 18 09 bd f1 09 81 3c
       -0.04468979 -0.00012937855 -0.033470836 0.01575181
000090 e4 e6 38 3b 8c 60 c7 bb 44 40 82 bb 02 1e b6 3c
       0.0028213793 -0.0060845073 -0.003974946 0.022231106
0000a0 58 34 c1 3c 9f 1b c9 bc 3b 6b ab 3d ac 89 ef bb
       0.02358453 -0.024549304 0.08370062 -0.007310113
0000b0 d1 e5 c3 bc 61 e0 07 3d 2c 72 20 3d 01 ce 04 3c
       -0.023913296 0.03317297 0.039171383 0.008105756
0000c0 e5 97 87 3d 29 e5 87 3d 97 3c ba bd ff 53 18 bd
       0.066207685 0.06635506 -0.09093588 -0.03718948
0000d0 b3 73 ab 3d f0 32 95 3d 92 8b a0 3d 97 6c 65 3d
       0.08371677 0.07285106 0.07839121 0.056011762
0000e0 65 bf 96 bc d1 a9 34 3b 5d 86 98 bb c2 53 bf 3c
       -0.01840181 0.0027567039 -0.004654689 0.023355369
0000f0 e4 8a 35 bd 50 bd a2 3d 7a 0f 1b bc 79 5d af ba
       -0.04432191 0.07946265 -0.009464139 -0.0013379297
000100 ae 19 9f 3c 73 11 d6 3b 30 06 66 bd dd 62 cd bc
       0.019421425 0.006532842 -0.056158245 -0.025071556
000110 96 2c 38 bd 3c f4 a0 bc 4a 3e ea 3c eb ad 82 bd
       -0.044964395 -0.01964771 0.028594155 -0.063808285
000120 44 ba 2f bc 0c f3 3b 3d 97 c7 50 bd fd 10 3b 3d
       -0.0107255615 0.045886084 -0.050971594 0.0456705
000130 2e 1c 44 3d 22 7c f4 bc 9f 95 0c bc 5f 3b e9 bc
       0.047878437 -0.029844347 -0.008580594 -0.028470693
000140 ad 88 17 3d 27 0e a3 bc d6 58 b2 3d dc ea 47 bd
       0.03699558 -0.01990421 0.0870835 -0.048807964
000150 37 da 94 3d 28 ad 08 bc a4 18 3e 3d 53 8c 8a 3c
       0.07268184 -0.008342065 0.046410218 0.016912615
000160 75 83 9a bc ce 12 3b bc 07 06 9b 3d 1a c3 c3 bc
       -0.018861512 -0.011418058 0.07569509 -0.023896743
000170 46 28 65 3d 65 67 5f 3d f9 59 7b 3c e0 37 d9 3d
       0.05594661 0.054541964 0.015341275 0.106063604
000180 a6 d7 84 ba f5 1a f7 bb ab 45 2b 3d 28 66 4d 3d
       -0.0010135069 -0.0075410553 0.041814487 0.050146252
000190 d2 c6 fd 3c 5d 5d 80 3d 90 9f 20 bd 46 cd 5c bd
       0.030978594 0.06267808 -0.03921467 -0.0539067
0001a0 52 e6 6a bb c4 fa 3d bc 8a 48 b9 3d 4b 95 0e bd
       -0.0035842848 -0.011595432 0.09047039 -0.034810346
0001b0 1f f0 d8 3c 05 31 c7 3c 53 e0 41 3d b6 37 f8 bb
       0.026481686 0.024315367 0.047333073 -0.0075750006
0001c0 93 62 36 3d 38 23 b0 3d 1b 8d 9f 3b 76 dc be 3d
       0.0445276 0.086004674 0.004869116 0.09319393
0001d0 82 3a 0d 3d 48 31 35 3d 18 d8 4c 3d cc 5b ab bd
       0.034479626 0.04423645 0.05001077 -0.08367118
0001e0 32 25 41 3c 34 e1 10 3d 0d 58 56 3d b8 d8 92 bc
       0.011788653 0.03537102 0.052330066 -0.017925605
0001f0 62 1e 07 bd 73 59 62 3d 93 6a 09 bd 3b 35 41 3d
       -0.03298796 0.055261087 -0.033548903 0.047169905
000200 8d 58 ec bc 51 84 0a 3d c6 df 10 bd f4 0b 7c bd
       -0.028850818 0.033817593 -0.035369657 -0.061534837
000210 cb ab 41 bc 01 11 51 3d a5 d9 58 bc bc a7 bf bc
       -0.011820744 0.051041607 -0.013235484 -0.023395412
000220 41 b5 1f bd 12 a4 16 3d 69 c2 07 3d ff 07 5f 3d
       -0.038991217 0.036777563 0.03314439 0.054450985
000230 2a f7 84 bd 84 34 98 bc fb 62 f3 bc c7 3e 1b bd
       -0.06492455 -0.018579729 -0.029710284 -0.037901666
000240 3e d7 3d bc 97 62 ca 3b 44 5a 45 3d e9 00 03 bd
       -0.011586962 0.0061763036 0.048181787 -0.03198329
000250 75 f1 89 3d a2 12 f2 3c f5 63 8b 3d e1 6f 7e 3d
       0.067355074 0.0295499 0.06806175 0.062118415
000260 e7 eb 19 3d 0c 21 c3 bc 85 51 66 3d 77 34 a7 3d
       0.03757849 -0.023819469 0.056230087 0.08164304
000270 45 86 12 bd 58 07 9d 3d 47 da ad 3d 3d 61 db 3b
       -0.03577258 0.07667416 0.08488899 0.0066949413
000280 73 82 76 bd ae 1d b1 3d 52 f8 33 ba ce 6b 6a bd
       -0.060183 0.08648239 -0.0006865311 -0.057231717
000290 27 c9 cf 3b 64 32 2e bd f2 1d f7 ba a7 12 17 3c
       0.006341118 -0.042528525 -0.0018853529 0.009220756
0002a0 c7 17 d2 3a 75 fc a0 3d 05 cd e7 bc 4d af b5 3d
       0.0016028815 0.07860652 -0.028296003 0.088713266
0002b0 9a 0b 76 3b 64 4b ef bb c5 c8 14 3d 38 de b6 bb
       0.0037543536 -0.0073026884 0.03632428 -0.0055806898
0002c0 11 31 d2 3c c3 9f 0a 3d 1f c8 ca 3d 3e e2 25 3d
       0.025658162 0.033843767 0.09901451 0.040498964
0002d0 5d e8 5c 3d e1 49 3b bb 7e fb 69 bd 0d bb 3a bd
       0.053932536 -0.002857797 -0.057124607 -0.04558854
0002e0 77 f6 5f 3d 4c 4c c3 3c 44 8b 94 3b 2c 2b 44 3c
       0.054678407 0.023840092 0.0045332033 0.011973184
0002f0 7f 11 80 3d 77 f8 e6 3c f4 15 c1 bc 34 34 69 3d
       0.06253337 0.02819465 -0.023570038 0.05693455
000300 95 bb 7a 3d ad f9 5c 3d ad c5 98 3c 4a ff e9 bc
       0.06121405 0.053949047 0.018648947 -0.028564114
000310 1d 87 04 3d 78 89 64 bc 2d 12 34 3d 39 1c d8 bb
       0.032355417 -0.013948791 0.043962646 -0.0065951613
000320 ba 07 87 3d 70 79 7f 3d c7 9c 9d 3d a8 35 fb 3c
       0.065932706 0.06237167 0.076959185 0.030665234
000330 55 b8 0e 3d 20 10 46 bc 49 43 6a bd 31 47 8a 3d
       0.03484376 -0.012088805 -0.057193074 0.0675186
000340 0a 17 4e bc f7 a4 eb 3c 86 a3 85 3d e1 c8 33 bd
       -0.012578735 0.028765185 0.0652533 -0.043892745
000350 2e 19 5d 3d 67 01 5f 3d 1a 86 c0 3d 63 73 44 3d
       0.05397909 0.054444697 0.09400578 0.047961604
000360 6c 09 09 bd 6f b4 c8 3c 40 39 ca 3c 2a a1 5c bd
       -0.03345625 0.0245001 0.024685502 -0.053864636
000370 58 d8 a6 3d cb 02 b7 3c db 61 dd 3c ac 51 f4 bc
       0.08146733 0.022340199 0.0270242 -0.0298241
000380 0d 47 24 3d 61 01 61 bd 22 84 e5 3c de 4b 5d bc
       0.04010682 -0.054932956 0.028017107 -0.013506858
000390 1a cc 39 3d 71 1b 9a 3d 14 04 ab bc 4d 68 16 bd
       0.045360662 0.07524765 -0.020875968 -0.036720563
0003a0 15 97 a4 bd c3 15 88 3d 06 41 a4 3d 6d 01 9f 3d
       -0.08036629 0.06644776 0.08020215 0.07763944
0003b0 b8 87 07 bd 19 0b 7d 3d 03 6a 9b 3d d4 2e 40 bd
       -0.033088416 0.06177816 0.075885795 -0.04691966
0003c0 82 92 67 bd e8 12 98 3d fb 09 93 3c e3 3c 58 3d
       -0.056536205 0.07425481 0.017949095 0.05279244
0003d0 00 15 2d 3d 9d 0d 49 bd 8d 92 84 3d 48 c9 ab 3d
       0.042256355 -0.04908525 0.06473265 0.08388001
0003e0 cd c0 fe 3b c5 39 68 bc a9 3d b9 bc d9 07 1d 3d
       0.0077744485 -0.01417393 -0.02261241 0.038337562
0003f0 0d 98 63 3d c4 ec 9a 3c 86 25 61 bd 92 cb df bb
       0.05556493 0.018911727 -0.054967426 -0.0068296874

model.2.bias f4 [256]
000000 66 b8 f5 bc 9b 59 c5 3d 9a 9f 31 bd 2c f5 bb 3d
       -0.029995155 0.096362315 -0.0433651 0.09177622
000010 7e c1 be 3d 17 68 bc bc 09 b3 37 bc 8a de 06 3c
       0.093142495 -0.022998853 -0.011212119 0.008231768
000020 03 ee bc 3d 76 b2 25 3d a5 86 a0 bb 8a da 2a bc
       0.09225085 0.040453397 -0.0048988634 -0.01042808
000030 b4 10 d5 3d c5 0d c8 bc 93 57 9c 3d e3 f8 a2 bc
       0.104035765 -0.024420628 0.07633891 -0.019894069
000040 7a dd bd bc eb 93 aa bc 41 0a 01 3d ee 0f 40 bd
       -0.023176897 -0.020822486 0.03150392 -0.04689019
000050 8c 2e 51 bd 8d 4f 0a 3d 9f 7b 66 bd cf 59 cc 3d
       -0.05106978 0.03376727 -0.056270238 0.09978067
000060 6e 5c 61 bd 7c 07 b7 3d cb da 1d bd 6f 37 42 3d
       -0.05501979 0.089369744 -0.038538735 0.047416147
000070 03 28 06 3a 7e 42 a9 3b c2 07 ae 3d 38 2d 8b bd
       0.00051176565 0.005165397 0.084975734 -0.06795734
000080 f9 0c 0b bd fb b8 72 3d 2b 0c db 3c 69 30 26 3d
       -0.03394792 0.059258442 0.0267392 0.04057351
000090 8a fb c2 bd 56 d2 95 3d 6f 57 9d bc d5 de 68 bc
       -0.095206335 0.07315509 -0.01920673 -0.014213284
0000a0 df 0c 21 bd 3e df 88 3b 58 02 9a 3d e8 95 2e bd
       -0.039318915 0.004177003 0.07519978 -0.04262343
0000b0 4c 9b 98 3d 2d 18 7b 3d 42 97 25 bd 8e 69 cc 3d
       0.074514955 0.061302353 -0.040427454 0.099810705
0000c0 48 f3 92 bd 0c ae 45 3c 61 29 23 3d 33 22 33 bd
       -0.071753085 0.012065422 0.039834384 -0.043733787
0000d0 fb 84 c2 3d af 3e 51 bd 39 9a 15 3d 1c 06 a8 3d
       0.0949802 -0.05108517 0.03652403 0.0820429
0000e0 bc 2d 9e 3c 2b ef b3 bc 55 0b a6 3d 0c 6d ca 3d
       0.019308917 -0.02196463 0.0810763 0.0988408
0000f0 12 09 99 bd 20 e4 e7 bc 96 5e 2e 3d 0c 6d 46 3d
       -0.07472433 -0.02830702 0.042570673 0.04844384
000100 54 e6 a0 bd 56 d2 66 3d c7 4f 73 bd 0c 02 a4 3d
       -0.078564316 0.056352936 -0.059402253 0.08008203
000110 b0 29 ca 3c ff a6 bd 3d 73 05 93 bd ca fe 19 3c
       0.024678081 0.092603676 -0.07178774 0.009399125
000120 21 88 93 bd b7 22 33 bd 79 81 51 bd 1a db 96 bd
       -0.07203699 -0.04373428 -0.051148865 -0.07366009
000130 fc dd 87 bd 08 48 0e bc 38 83 b2 3d 94 97 70 bc
       -0.06634137 -0.008684166 0.08716434 -0.014684577
000140 e0 fd 90 3d 9d 34 35 bd 1f 16 b7 3d 2e e0 f5 bc
       0.07079673 -0.04423963 0.08939766 -0.030014124
000150 5e e9 98 3d 69 f3 85 3c 04 1e 1a bd a7 5f 7f bd
       0.07466386 0.016351419 -0.03762628 -0.06234708
000160 b9 43 83 bd 42 2f c7 3b 2e dd 13 3e a9 ba ae 3d
       -0.064094014 0.0060786316 0.14439842 0.08531696
000170 3e c2 86 3d 37 68 37 bd d0 24 44 3d 65 af 3d 3c
       0.065800175 -0.04477712 0.04788667 0.011577462
000180 dd 71 be 3d 7b 61 d5 3c 86 3c f3 bc 03 0c 9e 3d
       0.092990614 0.026047459 -0.029691946 0.07717135
000190 34 d9 4a 3d 8f 87 c2 3d 55 0e 9f bc bf 69 d5 3d
       0.049523547 0.09498512 -0.019416014 0.1042056
0001a0 36 43 4f 3d 08 13 8f 3d 4a 15 4b bd ad fa d3 3d
       0.050601207 0.06986052 -0.04958085 0.10350547
0001b0 bc 9e d0 3d ab 2e 54 bd 3a 36 45 bd 82 d1 be 3d
       0.10186526 -0.05180232 -0.048147418 0.09317304
0001c0 47 87 43 3d 9b 3a 99 bd 2b fb 82 3d 0d 1e 24 3d
       0.047736432 -0.07481881 0.06395563 0.04006772
0001d0 e2 74 af 3c c4 5e c7 3d 3d 9e 49 3d c2 41 32 3d
       0.021418039 0.09734872 0.049223173 0.043519743
0001e0 2a 9f 26 bd 75 3c 91 3d 2a 99 11 3d d8 29 63 3b
       -0.040679134 0.070916094 0.03554646 0.0034662392
0001f0 1b 80 47 3d ff 97 88 3d 4d 96 65 bd c6 ab 84 bd
       0.048706155 0.06669616 -0.05605154 -0.06478076
000200 09 de c4 3c 0c ff 80 ba 1a 15 5a 3d 0c 5d ed 3c
       0.024031656 -0.0009841635 0.05324278 0.028975032
000210 43 5e 65 bd ca 0b b0 3d ef d4 81 bc 5b fe 87 bc
       -0.055998098 0.085959986 -0.015848605 -0.016600778
000220 d3 3b 8e 3d 97 35 c3 3b fe 64 b8 3c b2 26 5a 3b
       0.06945004 0.005957316 0.022509094 0.0033287224
000230 f1 49 aa bc b1 84 f3 3c 9d 7e 3f 3d b4 1d b3 bd
       -0.020787211 0.029726358 0.046751607 -0.087459
000240 cb b8 bc bc 7d ef d3 bb f3 93 37 3d 41 63 9e 3d
       -0.023037335 -0.006467758 0.04481883 0.07733775
000250 cd 1f c4 bb 86 8b c2 3d a1 de c7 3d 57 68 e3 3c
       -0.0059852363 0.09499268 0.0975926 0.027759714
000260 46 e2 58 bd a8 73 05 3d b0 7d b9 3d 84 3f 8b 3b
       -0.052950166 0.032581 0.09057176 0.004249515
000270 e7 08 61 3d cb 79 b5 3d b2 10 23 3c d3 2f 49 bd
       0.05494013 0.08861121 0.009952711 -0.049117874
000280 10 c0 0b bd c4 09 21 bd bf 54 16 3d 32 0d 67 bc
       -0.034118712 -0.039315954 0.036701914 -0.014102267
000290 b6 0d f7 3c e9 1e aa 3d 3b c4 3e 3d de f4 e0 bc
       0.030157905 0.08306677 0.04657386 -0.027460512
0002a0 c8 37 fb bd b1 35 38 bd 73 9e 9b 3d 6b e2 a4 3d
       -0.12266499 -0.04497308 0.07598581 0.08050998
0002b0 86 52 f4 bb 95 11 ac 3d 37 e9 7a 3d ed 1b 75 3c
       -0.0074561266 0.08401791 0.061257567 0.014960271
0002c0 40 73 f6 3c 23 8e 18 3d 15 4b 4f bd e9 d0 c5 3c
       0.030084252 0.037244927 -0.050608713 0.024147468
0002d0 d8 86 af bc f6 91 e9 bc cd 9e 2b 3d 15 50 17 bd
       -0.021426603 -0.028511982 0.04189949 -0.036941607
0002e0 a6 d5 28 bc d8 f9 e9 bc 17 7a 01 bc 47 d5 9b 3d
       -0.010304844 -0.028561518 -0.007902644 0.07609039
0002f0 f9 fd ac 3d 35 da a3 bd f5 a2 d5 bc 46 41 93 3b
       0.08446879 -0.08000604 -0.02607868 0.004493865
000300 f5 19 7c bd 7f e6 e1 bc f4 5e cf 3d a6 37 53 3d
       -0.061548192 -0.02757573 0.10125533 0.051566742
000310 f7 96 8b 3b 4d 02 8a 3d 4f de 8d bd af 00 4d 39
       0.00425994 0.0673872 -0.069271676 0.00019550578
000320 54 41 66 3d 0c d6 ff bb fa 61 85 3d 39 a0 9a 3a
       0.056214646 -0.007807499 0.06512828 0.0011797018
000330 35 99 b2 3d 81 b0 97 3d 87 54 13 3d e2 5c 2e be
       0.08720628 0.07406712 0.035969283 -0.1702762
000340 31 21 41 3d 5f 3f 96 bd 8a bf d7 3d bb 79 fc bc
       0.047150794 -0.07336306 0.1053458 -0.030819764
000350 b7 a7 d5 3d 83 68 7b 3d eb 8f e6 bc de a6 46 bd
       0.1043238 0.061378967 -0.028144797 -0.04849898
000360 4e 00 b2 bb 0b c3 ca 3d b5 97 79 bd 60 25 b8 3d
       -0.005432165 0.09900483 -0.060935695 0.08991504
000370 a3 d5 70 bd b4 cd ac 3d f4 ef b1 3d 2a f8 56 3d
       -0.05879749 0.08437672 0.086883456 0.05248276
000380 ce 04 c2 3d 2c 7f 48 bd 48 2d 8b bc e8 35 28 bd
       0.09473573 -0.048949406 -0.016989365 -0.041067034
000390 80 38 94 3d 66 37 22 3d c0 70 b2 3d 80 88 7a bc
       0.07237339 0.039603613 0.087129116 -0.015291333
0003a0 4b d4 91 3a 2f 5f a5 3d 1a e9 89 bd 5d 4d 77 3d
       0.001112589 0.080747955 -0.06733914 0.060376514
0003b0 7b 35 da 3d 70 b6 89 bd 80 30 c2 3d 87 c8 58 bd
       0.10654732 -0.0672425 0.09481907 -0.052925613
0003c0 4b 3a 70 3c fa 72 76 3d ef 95 84 bd f0 cc a1 bd
       0.014662336 0.060168244 -0.0647391 -0.07900417
0003d0 3a 16 19 bd 00 f7 5e 3d af 7d 82 3d de b7 9e bd
       -0.037374713 0.054434776 0.063716285 -0.07749914
0003e0 08 84 c1 3d 4a da 07 bd c0 02 b9 3c d8 4a 27 3c
       0.09449011 -0.03316716 0.02258432 0.010210715
0003f0 15 0b f2 3c 5a 11 fd 3c 3d c9 14 bd c3 56 58 bd
       0.0295463 0.030892063 -0.03632473 -0.052817117

model.4.weight f4 [784, 256]
000000 1b 2f f1 bb 32 47 6c bd 87 78 d8 bc 19 ff 48 3c
       -0.0073603517 -0.057685085 -0.02642466 0.012267851
000010 44 a4 11 3c 60 94 1e bd 02 63 5b 3b bd 26 11 be
       0.008889262 -0.03871572 0.0033475761 -0.14174934
000020 62 cb 41 bd 33 b4 30 3d 30 f8 7a bd 36 ca 76 bd
       -0.0473131 0.0431406 -0.061271846 -0.060251437
000030 a7 72 1d bd d3 25 69 bd 1e d2 9b bd f8 c1 e8 bc
       -0.03843942 -0.056920838 -0.07608436 -0.028412804
000040 13 4c 80 bd 60 52 d4 bc c9 51 9a 3b dd 3a f7 bd
       -0.0626451 -0.025918186 0.0047094566 -0.12071774
000050 6f d9 1a bd 62 a9 d6 3b 4a 0c 04 bd 4b 8b c6 3c
       -0.037805017 0.0065509537 -0.032238282 0.024236342
000060 3d 1b 92 bc 81 11 eb 3c 90 fe 72 3c 3b 68 ca bd
       -0.017835254 0.02869487 0.0148312 -0.09883162
000070 9e 05 07 bd 45 86 05 bd bd 4e 58 bd 49 58 27 bc
       -0.03296434 -0.032598753 -0.052809466 -0.01021392
000080 74 30 f6 bc 4d 5c 94 bd 92 b7 8c bc 45 40 dc bc
       -0.030052401 -0.072441675 -0.017177377 -0.026886115
000090 83 6f 0c bc d3 e6 fb 3c df ed 40 bd 88 48 34 3c
       -0.008571508 0.030749714 -0.04710185 0.011003621
0000a0 f5 15 75 bd af 84 75 bd 0b 5f 2b 3d d2 fc 9a bd
       -0.059835393 -0.05994099 0.041838687 -0.07567753
0000b0 90 80 6e bd ce 9a 2f bd eb 44 67 bd c9 e3 60 bd
       -0.058228076 -0.042872243 -0.05646221 -0.054904733
0000c0 68 b3 7e bd 71 b5 8a bb ce 59 c4 3a 9c c9 b8 3b
       -0.062182814 -0.0042330553 0.0014980377 0.005639268
0000d0 15 bf b9 bc af 97 84 bc ef 5d 70 bd cd 8e 9a bd
       -0.022674123 -0.01618561 -0.058683332 -0.07546768
0000e0 b0 6c e0 3a a6 91 1c 3b 15 8f 0a 3d 88 fd 85 bd
       0.0017122235 0.0023890524 0.03382786 -0.06542498
0000f0 50 88 e2 bd cb c5 fe bd a6 b3 dd 3c ee c6 3d bd
       -0.11061156 -0.1244007 0.027063202 -0.046332292
000100 49 d9 27 bd 98 46 94 bd 0a e5 02 3d 8d 5e 82 3c
       -0.040978704 -0.07240027 0.03195671 0.015914226
000110 77 0d 93 bd 9e 59 96 bd aa ad c7 bc 49 64 e8 ba
       -0.071803026 -0.07341312 -0.024374802 -0.0017730083
000120 f7 c6 1b bd 04 df 16 3d 50 47 01 bd 9d c4 ec bc
       -0.038031545 0.036833778 -0.03156215 -0.028902346
000130 39 95 80 bb 59 a5 48 3b d0 34 51 bd a5 d0 a1 3c
       -0.0039240387 0.0030616133 -0.051075757 0.01975281
000140 fb 38 b4 bc 35 82 11 3d 3c d4 23 3d dd bf 66 bd
       -0.021999827 0.035524566 0.039997324 -0.05633532
000150 a7 94 34 bd 83 64 c8 bc ba 0d eb bc 35 64 06 bd
       -0.04408708 -0.02446199 -0.028693069 -0.03281041
000160 80 df 0d 3d 96 a4 8e bd b3 21 a6 be e9 6c 79 bd
       0.034636974 -0.06964986 -0.32447585 -0.06089488
000170 8b a0 62 bc 9d 2c 94 bd bf b2 a9 bd 87 6c be 3c
       -0.013832222 -0.07235072 -0.08286046 0.02324511
000180 57 1f 28 bd ce e3 39 bd 4e db 1c 3d 4c d5 dd bc
       -0.041045513 -0.045383267 0.038295083 -0.027079247
000190 48 14 f5 bb de 80 4b bc 67 25 02 bd 97 e8 b9 3c
       -0.0074792244 -0.012420861 -0.03177395 0.022693915
0001a0 34 bc 80 3c a3 3f 02 3d ef 2a 29 bc 6c 0a 07 bd
       0.015714742 0.03179897 -0.010325178 -0.032968923
0001b0 d4 ae 08 bc 7a 89 39 3c 87 90 a2 3c 31 42 1c 3d
       -0.0083424635 0.011324281 0.019844307 0.038149063
0001c0 b8 9f 52 bd 20 c9 0d bb a3 97 0f bd 03 fe 00 bd
       -0.05142185 -0.0021634772 -0.03505672 -0.031492244
0001d0 fb 92 5f bb 39 1f 8f bd f0 06 8c bd c1 b8 88 3c
       -0.0034114707 -0.06988377 -0.06837261 0.01668966
0001e0 43 39 4c 3c df e1 e6 bc 70 08 1c bc ec 6b 73 bd
       0.012464824 -0.028183876 -0.009523496 -0.059429094
0001f0 ac 3a ac 3c 98 ed 18 3d b5 33 44 3c 1c d2 6d bd
       0.02102407 0.037335962 0.011975219 -0.058061704
000200 9c 02 3d 3c 6e 47 aa bd 69 93 79 3a f0 8e 77 bc
       0.011536267 -0.083144054 0.0009520562 -0.015109763
000210 83 e2 fb bd 62 68 9e bd 9b 6a cb 3c 2a 3c 87 bd
       -0.12299063 -0.07734753 0.024831107 -0.06603272
000220 e4 35 32 3d bb 4d e1 bc a4 d2 96 bd 1d bb e1 3c
       0.043508425 -0.027502885 -0.07364395 0.027555043
000230 d9 ae 11 bd 39 c9 5c bd 32 d7 a4 3c 4f dd ae bc
       -0.03556714 -0.05390284 0.020122144 -0.021345763
000240 22 95 56 bd 84 33 1c bd 13 10 0f bd 6a dd cc bd
       -0.052388318 -0.038135067 -0.03492744 -0.10003169
000250 52 83 7f bd 50 a0 90 bd ac 82 6a bb 6c 86 63 bd
       -0.062381096 -0.07061827 -0.0035783453 -0.055548117
000260 d3 54 55 bd 17 a3 94 3c 01 76 0d bd eb a0 58 3c
       -0.052082848 0.018144174 -0.034536365 0.01322196
000270 85 4d 8e bd 71 3b de bd d5 b9 ba 3c 20 88 62 3a
       -0.069483794 -0.10851181 0.02279369 0.00086415
000280 df 6f ac bb 0a c5 b5 bc 6c 17 67 bd 40 bd 97 bb
       -0.0052623595 -0.022188682 -0.05641882 -0.0046307147
000290 ac 4c 1a bd 98 3b 29 bc a6 b7 2a bd 75 c0 4d bd
       -0.037670776 -0.01032915 -0.041679047 -0.05023237
0002a0 a5 73 92 3c b8 a7 e2 bd 2d f2 9d bd 19 3e bb 3c
       0.01787741 -0.11067146 -0.07712207 0.022856759
0002b0 e5 60 84 3c 8a bd 27 3d f3 89 19 3d 1c 82 9d be
       0.016159484 0.040952243 0.037485074 -0.30763328
0002c0 0c b4 1c bd 11 ff 36 bd 66 85 2c bb 3b bd 99 bc
       -0.038257644 -0.044676844 -0.002632463 -0.01876699
0002d0 da f0 9a bd 33 b9 64 bd 01 e6 bd 3b ab 60 9d bd
       -0.0756547 -0.055840682 0.005795241 -0.076844536
0002e0 42 84 38 bd ab 65 75 bb 6f 97 d8 bc 9d d3 11 3d
       -0.045048006 -0.0037444632 -0.026439397 0.0356022
0002f0 3e ee a7 bd 6f 23 8c bd 05 d7 7f bd 53 9e a1 bd
       -0.08199738 -0.06842696 -0.062460918 -0.07891526
000300 55 c2 6b bd cf 63 18 3d 79 60 0b 3b f1 41 b0 bc
       -0.057558376 0.03720456 0.002126722 -0.021515818
000310 95 67 73 bb 5b 77 1c 3d 22 29 a1 3c e7 42 32 bd
       -0.0037140597 0.038199764 0.019672934 -0.043520834
000320 ff 3c 2d bd ad 68 c3 bc 5d 30 5c 3c 7d ce 8c bc
       -0.0422945 -0.023853624 0.013439265 -0.017188305
000330 24 33 66 bd db 12 c4 bc 82 18 6e 3b 04 eb b3 3c
       -0.056201115 -0.023934772 0.0036330526 0.02196265
000340 99 f8 9b bd 4a 69 67 3c 3d 61 85 bd f6 da a1 bd
       -0.076157756 0.014124224 -0.06512687 -0.079030916
000350 b5 78 39 3d 87 cf 72 bd 6f c9 d9 3c c5 23 5f bd
       0.04528113 -0.059279945 0.026585309 -0.05447747
000360 99 f0 d0 bc 1a 88 f5 3c 66 d7 59 bd 3a ec 8d bc
       -0.02550535 0.029972125 -0.053183936 -0.017324556
000370 f6 79 3b bc 6b a7 42 3b 70 f4 5e 3c 31 b1 91 bd
       -0.011442652 0.002970184 0.013608083 -0.07113875
000380 90 74 8a bd 4d 6e 0d 3d 2e 96 f7 bc 9c d9 44 bd
       -0.06760514 0.03452902 -0.030222978 -0.04805909
000390 f1 09 05 3d 48 3a a7 bd e1 ed 45 bd 60 a6 14 3d
       0.032480184 -0.08165413 -0.048322562 0.03629148
0003a0 42 67 bb bc d2 22 4d 3c df 41 75 bd 7e 88 4f bd
       -0.022876386 0.012520509 -0.059877273 -0.05066728
0003b0 cc 09 80 bd 4d 00 89 bc 3b cd 31 3d b1 a9 ce bd
       -0.062518686 -0.016723776 0.043408614 -0.1009096
0003c0 e3 b6 db 3b 24 af 92 bd 97 64 7a bd 31 44 3e bd
       0.0067051514 -0.07162312 -0.061131086 -0.04645175
0003d0 c1 6f 7d 3c 4e 65 f5 3c 07 bb 2a bd a0 1c b5 bc
       0.015468539 0.029955532 -0.04168227 -0.022108376
0003e0 3a bb 37 bd 53 3a c9 3c c1 d8 b2 3a 9f c6 7b bd
       -0.044856288 0.024563944 0.001364492 -0.061468717
0003f0 32 4d 4b 3c f4 f6 4a 3c 5a 21 2d 3d ea ea 05 bd
       0.0124085415 0.01238798 0.042268135 -0.032694735

model.4.bias f4 [784]
000000 08 d6 8a bd 05 0b 1a bd 49 52 89 bd c0 bd 9e 3b
       -0.067791045 -0.037608165 -0.06705148 0.0048443973
000010 4e 0d 50 bd ec 99 6e bd 7c 61 42 bd 0c d7 50 3c
       -0.05079394 -0.05825226 -0.04745625 0.012746584
000020 b1 29 ef bc 7d 3b 21 3d e2 b8 89 bd f1 0a 1c bd
       -0.029194685 0.039363373 -0.06724717 -0.038096372
000030 a1 d4 8f bd dd 92 5a bd 07 be 43 bd 18 7c d0 bc
       -0.070229776 -0.053362716 -0.047788646 -0.025449798
000040 10 02 00 3d 1e 6f 1b bd fe 79 13 3d 30 d9 2b bd
       0.031251967 -0.037947766 0.036005013 -0.041955173
000050 6f c4 0f bc 98 d6 84 bc 34 6b 6a bd 17 25 82 bd
       -0.008774861 -0.016215608 -0.057231143 -0.063547306
000060 a9 d1 cf 3c 8a 20 80 bd 59 d0 0f 3d e0 1f 19 bd
       0.025368528 -0.06256206 0.035110805 -0.037383914
000070 65 00 2d bc 12 c0 35 3d 0e 0e 7d 3c cc 52 18 bc
       -0.010559176 0.044372626 0.015445245 -0.009297084
000080 ae 7e dd bb 14 21 3f 3a d5 f0 3d 3d 4d ac a8 bb
       -0.006759486 0.0007291001 0.046372253 -0.005147493
000090 95 de ac bc c6 36 4e bd bf ff 4a bd f1 5a 56 ba
       -0.02110223 -0.050345205 -0.049560305 -0.00081770035
0000a0 1a 36 c5 bc a3 40 91 bc 6a a2 91 bd 01 8b fe bc
       -0.02407365 -0.017731017 -0.07111056 -0.031072142
0000b0 6c 4c e1 bb 51 98 c4 3c 13 b6 53 bc dc 46 a7 3c
       -0.0068755653 0.023998411 -0.012921828 0.02041953
0000c0 e5 ba 8e bd 9b fa 3a 3d 69 9a 05 bd fb b9 66 bb
       -0.06969241 0.045649152 -0.03261796 -0.0035206068
0000d0 46 0f a1 3c 9a 5e 94 3c 06 a5 f4 b8 e0 8c b5 bc
       0.019660603 0.018111516 -0.00011665565 -0.022161901
0000e0 02 c7 04 3d 44 53 e7 3c 92 10 ea bb bd 57 5c bc
       0.03241635 0.028237946 -0.0071430886 -0.013448653
0000f0 76 af b4 bc f2 4c 46 bd 00 58 9e 3c 5d b0 82 3a
       -0.022056323 -0.048413225 0.019329071 0.0009970773
000100 8c 29 1e 3d 80 2b 7b bc 51 94 b2 bc c8 c5 2f 3d
       0.03861384 -0.015330195 -0.021799238 0.04291323
000110 29 fc 75 bc 20 f2 00 3c 61 ad c5 3c ee 5c 96 3c
       -0.015013733 0.007870227 0.024130525 0.01835486
000120 a4 7a f1 bc cc e2 e3 3c d5 0a 1c bd b1 53 41 3d
       -0.029477425 0.027818106 -0.038096268 0.047198955
000130 4f 6c 6d bd 9f 81 67 bd 32 2f 72 bc 73 12 94 3b
       -0.05796462 -0.0565201 -0.01478176 0.004518801
000140 3c 72 c6 3c 2f d1 85 bd 29 a3 28 bd a9 95 35 3d
       0.024224393 -0.06534039 -0.041171227 0.04433218
000150 78 b2 65 bd 5e d2 09 3d 14 1d 54 bd 46 de 2d bd
       -0.056078404 0.033647887 -0.051785544 -0.042448305
000160 af 4e 03 3c 3b 11 34 bd 58 9c 2c bd 10 b0 02 bd
       0.008014365 -0.043961745 -0.04214129 -0.031906188
000170 63 93 0c 3d 54 48 0e 3b 2a 3d b7 3a fb 36 87 bd
       0.034320246 0.0021710591 0.001398002 -0.066022836
000180 2b e8 7c bd 74 bf 80 3c 6d 31 06 3b 26 ec 08 3c
       -0.06174485 0.015716292 0.0020476237 0.008357083
000190 c8 38 69 bd e3 b3 c5 bb c0 b4 80 bd 5f 69 2c bc
       -0.056938916 -0.006033407 -0.06284475 -0.010523169
0001a0 14 f5 bb 3b 77 b7 c9 3c 03 d7 30 bd 02 8e 41 3d
       0.0057360027 0.024623616 -0.0431738 0.04725457
0001b0 30 31 29 3d de 51 31 3b 6e d0 81 bd ea c4 23 3d
       0.041306674 0.0027056853 -0.06338583 0.039982714
0001c0 8b d9 87 bd 79 e8 81 bd 58 fe 5f bd ce 04 43 bd
       -0.0663329 -0.06343169 -0.05468592 -0.047612004
0001d0 8e 36 92 bd fc 95 0a 3d 63 5f 81 bd 9d ef 07 bc
       -0.07139312 0.033834442 -0.06317022 -0.008296874
0001e0 d2 3b 26 3d bb 68 8f bd 4a 79 92 bd 20 1e 82 bd
       0.040584393 -0.070023976 -0.0715204 -0.06353402
0001f0 ed c2 65 3b 3d 6e 78 bb 13 21 09 3d 44 25 91 bd
       0.0035058812 -0.0037907504 0.033478808 -0.07087186
000200 f3 bf 80 bc da 4f ec 3c 25 03 87 3c de c6 68 bc
       -0.015716529 0.02884667 0.016480992 -0.01420757
000210 67 aa 8a 3b 2e eb 0b bd 47 38 8f ba 35 4e da 3c
       0.0042317393 -0.03415983 -0.0010926806 0.02664862
000220 a7 91 86 bd 1f e9 7b 3c 5f 16 c8 bc 23 f2 47 bd
       -0.0657075 0.015375405 -0.02442473 -0.048814904
000230 8a dc 10 3c 45 b8 4c 3d 72 ab e8 bc a5 77 a2 bc
       0.008841643 0.04998042 -0.028402064 -0.019832442
000240 2e bd 3d bd f5 17 6f bd 30 9b 88 bd b8 72 e5 bb
       -0.046322994 -0.058372457 -0.06670225 -0.007002201
000250 ca 7e 57 bd 84 94 8a bd 85 23 fc 3c 25 4a 90 bd
       -0.05261115 -0.06766608 0.030778656 -0.07045392
000260 40 f1 d8 b4 27 01 13 3d 9a ed 64 bc 6b d7 2b bd
       -4.0408668e-07 0.03588977 -0.013972664 -0.041953485
000270 91 32 84 bc 97 bd 72 3c 43 2e b5 3c 72 d1 3e 3c
       -0.016137393 0.01481571 0.022116786 0.011646615
000280 4a cb c4 3c a4 45 9c bd 19 e3 db 3b 3a 81 80 bd
       0.024022717 -0.076304704 0.0067104218 -0.06274648
000290 4a 9d 76 3b 94 36 13 3d 1c d7 a2 3c 51 16 9d 3c
       0.0037630373 0.03594072 0.019877963 0.01917568
0002a0 6d 53 fc bb 45 3c ef 3c 1c 5b 65 bd aa 71 3c 3d
       -0.007700375 0.029203543 -0.05599509 0.046006836
0002b0 de 7a 68 bc 92 7e 70 bd c8 77 7d bd f8 fe 2d bd
       -0.01418945 -0.058714457 -0.06188181 -0.042479485
0002c0 d9 42 da 3c e8 9f 1e bd 07 85 60 3c be b2 a9 3b
       0.026643204 -0.038726717 0.013703591 0.0051787784
0002d0 5b 1d 83 ba 39 19 36 3d 5f 9f cf bb f1 90 94 bc
       -0.0010003255 0.044457648 -0.006336137 -0.01813552
0002e0 c5 bd cd 3a a2 a1 f7 3c 49 01 ab 3c 11 b7 18 3d
       0.0015696815 0.03022844 0.020874636 0.03728396
0002f0 53 41 74 3c fa c8 45 3b 36 1f 80 bd 0b 57 73 bd
       0.014908153 0.0030179606 -0.06255953 -0.059409183
000300 cf 8e 6d bd d2 b7 c8 bc 9f aa a3 bc a7 0f 3c 3c
       -0.05799752 -0.024501715 -0.01997882 0.011478341
000310 30 d0 16 bd cb 73 c9 bc b9 ff 8a bd e3 24 31 3d
       -0.036819637 -0.024591347 -0.067870565 0.04324807
000320 13 39 32 bd df e5 77 bd 75 28 90 bd 2b 86 fa 3c
       -0.04351146 -0.060521957 -0.070389666 0.030581554
000330 56 f1 17 bd 1e 2a 8c bd 6f 04 12 3d 3a 82 07 bd
       -0.03709539 -0.06843971 0.03564876 -0.033083178
000340 ac c7 c8 bc e4 19 95 3d cc c9 b1 ba 39 af 38 3c
       -0.024509273 0.07280329 -0.0013564168 0.011272245
000350 94 8d 1d 3c 62 c2 31 3d a3 04 88 bc df e8 ef bc
       0.009616274 0.04339827 -0.016603773 -0.029285846
000360 dc eb cb bb be c6 1d bc c9 1c e8 bc 6d 47 e0 3c
       -0.006223185 -0.009629903 -0.028334038 0.027377808
000370 95 c4 ec 3b b9 cf 0a bc 52 5d ac bc 18 b0 2e bd
       0.007225583 -0.0084723765 -0.021040592 -0.042648405
000380 d6 9c 0a bd 46 be 90 bd 9a 31 88 bc 71 50 f9 bc
       -0.033840977 -0.07067542 -0.016625214 -0.030433865
000390 49 a9 7b bd ec 2c c4 3c 52 e9 03 3d 4c a2 b9 3b
       -0.06144074 0.023947202 0.032204933 0.0056650992
0003a0 84 e8 be 3c 83 5e e1 bc 82 ee 1c 3d c1 1f 46 bd
       0.023304231 -0.027510887 0.038313396 -0.048370127
0003b0 3f 7b eb 3a ce 41 2e 3d 6c 21 11 bb 15 80 2f 3d
       0.0017965807 0.042543225 -0.0022145165 0.042846758
0003c0 f0 a7 92 3b ef d7 b2 3b a8 36 73 3d 58 62 27 bd
       0.004475586 0.00545787 0.059378296 -0.040865272
0003d0 64 1c 7f bc 56 ea 86 3c bc d3 46 bd a5 ff 8e 3c
       -0.015570734 0.016469162 -0.04854177 0.017455885
0003e0 a8 e2 cc bb fc 9d 89 bd c5 23 a7 bc 53 8d 26 3d
       -0.0062526055 -0.06719586 -0.020402798 0.04066212
0003f0 5d 5c 3f 3d 98 5a 84 bd 77 0d 1a bb 8e 70 72 3a
       0.046718944 -0.06462592 -0.002350656 0.00092483393
